Abhiraj/OCR/thetasl110k.npy (npy, 32128 bytes, 1 tensors)

array f8 [10, 400]
00000000: 0000 0000 0000 0000 0000 0000 0000 0000
00000010: d57e 4422 b20b 87be 825c 64cf 81a1 d8be
00000020: f7a7 303d 680d 163f 9c37 c12c ed13 4a3f
00000030: 40c5 2456 cb8a 2b3f e4f3 a5ed 652c 43bf
00000040: b2b0 e0ec 1807 50bf 085b 1fd8 466a 4ebf
00000050: 4738 f6dc 4b55 21bf b003 7b63 9662 2e3f
00000060: 6153 5f11 0216 3e3f bfdc 9080 1b45 603f
00000070: 6388 07c7 9444 5f3f 8e28 6553 2763 163f
00000080: cd13 289e 925f f13e 1860 808a 20f0 8a3e
00000090: 74c5 e1ae 1858 92be 0000 0000 0000 0000
000000a0: 278c bd79 9471 83be 0c9b 2c7e 458c d0be
000000b0: fb36 f6a1 74f5 e93e dd74 d0c9 3c04 433f
000000c0: e96f 0a03 9074 233f 692a 8843 c2c6 82bf
000000d0: 0df2 e0e6 185c 71bf 53ed 67cf c3f1 71bf
000000e0: 0930 2956 9df3 79bf 4a5e 6242 7db1 673f
000000f0: 1a47 2ccf 4231 683f 5910 f30b 3f97 3f3f
00000100: d5db ea5b 73a8 5dbf 359d 68e7 345b 91bf
00000110: 7484 c55e 6bf7 92bf e0a4 36be 7a10 55bf
00000120: a9a7 9277 cbd6 563f 2228 0c36 4c35 513f
00000130: 0991 6433 0456 f7be d756 d327 919c d33e
00000140: cfdb f1a3 c953 b53e 9b53 bdf3 ff82 e63e
00000150: 1a45 6463 26e4 02bf 3878 868d 3c9b 5fbf
00000160: cc9a 43dd 9a90 82bf ea9d 52fc 9e3a a3bf
00000170: 998b 44ed 9f4b acbf 405b 7e03 1bb8 b5bf
00000180: 5de8 0905 a677 bcbf 5e51 9fb1 8b1a bcbf
00000190: b79f d7c9 718e bebf b84b 5a73 b650 c0bf
000001a0: cde6 d6b9 b186 bebf 0be6 1bc2 5c6e cbbf
000001b0: fb96 60d3 36ec c7bf 7921 abd3 061a a9bf
000001c0: 07d2 bd89 2bc4 9abf 4b9a ed8a 017d 87bf
000001d0: c97f 4b41 334f 633f 49bb c92b ff48 3d3f
000001e0: 33b2 0a16 2785 d43e 97ae c174 1427 363f
000001f0: 7b0e 3c5c 44ad 43bf 9f05 1c88 fbd0 a1bf
00000200: 71fb 85e2 0730 b3bf ab83 72d9 32f2 bdbf
00000210: fdc7 9058 94e0 c9bf bc19 e60d b75a d0bf
00000220: e7be b2c6 ea6b cdbf d5d9 4b8c edb6 b6bf
00000230: 1a9c a32e 2a1b c03f 252c ffa1 cbab af3f
00000240: 8b81 3f36 1b7f 95bf 4717 f878 3a11 c2bf
00000250: bc48 6c0c a83a c3bf 6cb0 e429 504e b73f
00000260: 2d80 92cb 48ba a53f 1325 0d39 cb20 91bf
00000270: d381 dcb8 cd77 90bf ca3f fc0f 3631 71bf
00000280: 3f35 b8bd f710 b3be e3e2 1108 e682 483f
00000290: ca6b 7799 d98f 63bf 1fc0 1278 938d b3bf
000002a0: bf75 52f0 eb45 c8bf f2dc 732e 0591 cdbf
000002b0: fcd3 b96b 37ed d2bf d341 b3cf 4a06 cfbf
000002c0: 0d4a 52f3 8ce3 b43f fb24 6137 c788 d93f
000002d0: 305d 741c ed20 e53f a574 5fe0 da80 e03f
000002e0: 95ba fd73 09dd dc3f 2815 0789 48d4 d03f
000002f0: 80ca 9108 fd6c bcbf c73f 910b a36f c03f
00000300: 2661 c0c7 29ea ce3f 61e8 0bd2 0358 a9bf
00000310: 0b0d 7062 205a aebf f137 af3d f74b 8ebf
00000320: a3d0 8aec 7736 17bf f019 ffae 6037 5c3f
00000330: 84e3 6c0b 93ab 92bf e614 d6e8 6065 c4bf
00000340: 862c 33b4 b8de d6bf cb4c e89e edbe dabf
00000350: c19b ff1d 8f61 debf ce99 836f e2f0 c8bf
00000360: 8bf1 a57e 0522 c93f 5b54 f877 ae46 d03f
00000370: de8d b196 7b59 de3f aa29 0fd1 9da6 e63f
00000380: 2071 c345 b78b e23f 5e08 e47b 1703 e43f
00000390: e162 b5d1 521c c43f 577f 5279 6386 aebf
000003a0: b6b3 7e27 2689 c3bf 40c6 34de 9ae2 cdbf
000003b0: 6f37 0029 7f80 c0bf e311 0d81 6bd6 92bf
000003c0: 1bd7 1041 f6f7 4c3f bb1c 37e4 d751 7dbf
000003d0: f0f3 9556 bf8b bebf eb6b 52bd 0081 d8bf
000003e0: 713c dcbc 0127 e0bf 25c3 c4e4 74aa d5bf
000003f0: 8a72 58c8 bcd1 dcbf d70d 0f41 1bad c3bf
00000400: 6d8b 80e5 8cb7 a5bf 8a41 94b3 867b 873f
00000410: ab0e 7508 02e4 c33f 5571 e59f 56e6 d93f
00000420: d5b9 9a5f 212d d83f b98f 3f0e d938 d33f
00000430: 5cd5 b6d0 c1d2 c93f b26b 1fb6 9d7c c03f
00000440: 047c 7813 0894 b83f 30ab 42ac a840 d7bf
00000450: c29f 78b2 531e cfbf 74ab 3728 7c0c 99bf
00000460: 8d76 ee1b c726 563f cfa1 224c 11c5 84bf
00000470: 1a48 b46b 92e8 d0bf 27f0 fb4f 0f03 e0bf
00000480: bca3 1cd0 f7c5 cabf 0f51 a09a 5058 b03f
00000490: c5f6 c489 5315 cebf e482 f355 dde7 c6bf
000004a0: 46f6 8630 4fab a03f 9e3a 9861 c768 cf3f
000004b0: 9efa ddd2 b313 df3f 733c 535f 7ab3 d03f
000004c0: 3b0e ff6d e096 e03f 6a98 a8d0 3959 dd3f
000004d0: 8891 f40d 22e7 e83f e4d7 c1ba face d43f
000004e0: 9411 b2bb b82f df3f ec85 87f2 02ee cfbf
000004f0: 358b 6ee5 d012 d8bf f963 9c3f ba7e adbf
00000500: 35b1 9ef8 1494 523f f0d7 c5c7 6c70 83bf
00000510: b997 c28b 46c7 d6bf 72dc fb59 7666 d4bf
00000520: 0646 92d4 b9b9 aabf 77d8 dbae b0b2 b3bf
00000530: f908 9b32 fb94 ccbf dbb6 1e63 190e a33f
00000540: e961 fa00 2014 b33f 1a99 33ab f02f 8cbf
00000550: c14d 4293 cad2 d03f 1726 b528 2803 a73f
00000560: c916 4119 c8d6 b03f d3c6 e523 5b07 c93f
00000570: 6f29 917e 6f8d e23f 5d2b 0af0 cc93 ca3f
00000580: 87b9 ced8 3b86 e53f 70af 9b7c 823c bbbf
00000590: 9ac5 714f 7cd4 d7bf 3817 50c6 3640 b8bf
000005a0: 823b b6a5 e1ed 593f 068e ed62 c5ba a5bf
000005b0: 0961 6ffe 6a3d d3bf a6f5 e8fd 895c b83f
000005c0: 18a1 234f be22 c63f 5879 c53d bfeb a53f
000005d0: c9a3 dd7f 465c c53f 5f05 2736 602a c43f
000005e0: 9299 6c83 7748 d3bf af78 3e06 786d dfbf
000005f0: 5729 3af2 ee11 e0bf 0945 6cf2 5e7e f3bf
00000600: 54df ab9b 9fb0 f4bf 41ae bfe0 5947 e7bf
00000610: b108 caaf e3ab c4bf c997 683b 8587 c6bf
00000620: af8e 8e1d cd55 e93f 6164 a44d 972e c4bf
00000630: 7317 0915 9e10 d7bf 339b be8d 46f5 bdbf
00000640: 3c67 73d3 34a5 04bf e3a0 3870 ad78 adbf
00000650: be4a 8bf9 4a6c cebf a2a5 eb06 4f38 ca3f
00000660: c833 55a6 5925 c73f b026 2f88 d6a0 cf3f
00000670: 0cd5 dc42 839f d03f d991 867d 2dd3 c3bf
00000680: f789 167a c19f e7bf 157a 6efa 62c1 f2bf
00000690: 0df1 4288 2554 f8bf a6c5 06de 58ac fbbf
000006a0: 6a4c 4d21 c77b f4bf 4251 62fb 05d8 e7bf
000006b0: acd4 4806 d3eb e3bf e6c5 c25f ded4 7bbf
000006c0: 6954 2e10 1948 d83f 09fa 2b2e 680a cebf
000006d0: e4c6 77c3 9ac3 d8bf 1fa6 96e4 c5f4 b3bf
000006e0: 3fc2 3191 c620 683f e528 9d93 50a5 b6bf
000006f0: 2236 851e fed1 d6bf 3fca 463a 57a8 b73f
00000700: ee2a 7839 f203 d73f e0aa 2aa7 184e da3f
00000710: d5fc 7ce0 2aaf ae3f c3a0 2d46 241f d3bf
00000720: b4e2 2d73 218d eabf be10 9d45 93c7 f5bf
00000730: be5d 7e28 b392 f5bf c111 718e 4a56 eebf
00000740: a7e2 a19c 2b45 e8bf 6ebd a5ad 55ef dabf
00000750: f48b 4ec1 4d19 d9bf 33ce dc50 3dd7 b0bf
00000760: 1960 32b6 a684 d0bf cbb7 e937 8d23 d5bf
00000770: 4772 f499 6672 d0bf 65e6 9c0e af18 a3bf
00000780: 816c f76c 54cd 873f 3fc8 f23b 906c c2bf
00000790: 4c0f 7126 a371 dabf 2cdb 9bcf 64cb c0bf
000007a0: 7224 aea3 1684 d33f 3584 0741 1acd df3f
000007b0: d35c 163c 938c d03f f21b b831 483d dd3f
000007c0: 1c19 d049 a507 5a3f 43ec 02e7 adeb d7bf
000007d0: aab3 5c40 beb3 d7bf 9636 7432 0503 d7bf
000007e0: 888e c7c6 d6ae cbbf 448d 81db 9e34 d0bf
000007f0: cd2f 8e95 076f d6bf 2561 6b7c 1e9c e2bf
0.0 0.0 -1.7170374733924034e-07 -5.8724610794348075e-06 8.412312244901453e-05 0.0007958324508849815 0.00021013004431717254 -0.0005851266571849059
-0.0009782546435515402 -0.0009281965178570004 -0.0001322417360651326 0.0002318199710682734 0.00045907545552142075 0.0019860779907748534 0.001908440866934779 8.540084386257833e-05
1.6568499527042612e-05 2.0070371431544943e-07 -2.7334878794420016e-07 0.0 -1.4486664389875328e-07 -3.9453352396526615e-06 1.2378125630953503e-05 0.0005803391283084842
0.0001484323306798479 -0.009168164907369563 -0.0042382214288037125 -0.004380955585016127 -0.006335844608269533 0.0028922506781546052 0.0029531769627134776 0.0004820374414971122
-0.0018101812890287579 -0.016949488281310116 -0.0185219551652875 -0.00128566729186224 0.0013939845069139512 0.0010503048180816672 -2.225494537201701e-05 4.675767397451748e-06
1.271205874590323e-06 1.0734423646555256e-05 -3.6032125011806716e-05 -0.001929101117731159 -0.009064874532169219 -0.03755661802398065 -0.05526447078070546 -0.08484047732632138
-0.1112006914426344 -0.10978005491717144 -0.11936103036680278 -0.12746315605599334 -0.11924277102562116 -0.21430549123742568 -0.18689618416936313 -0.04902669271320099
-0.026138954431603547 -0.011468898823023063 0.002357101542983718 0.0004468558288754266 4.892379678861141e-06 0.0003380227033235954 -0.0006004890242085748 -0.03479753529064599
-0.07495164184909499 -0.11697690781376362 -0.20216612171640228 -0.2555368076067699 -0.22985586835920133 -0.08872875857546288 0.1258290031175598 0.06185757019519426
-0.020992684541739897 -0.1411507692975482 -0.15022755247679764 0.09103871367250499 0.042436861848955544 -0.01672666106904781 -0.016082014473001238 -0.004197322064797457
-1.1364388602415064e-06 0.0007480261994166872 -0.0023879289617360954 -0.07637902909732518 -0.18963383898237215 -0.23098816650574566 -0.29572854538065463 -0.24237952367413004
0.08159714642014411 0.3989732781233923 0.660269313407218 0.5157293684275329 0.4509910233236181 0.26295674687965453 -0.11103803118911948 0.12840688767255257
0.241521093878654 -0.049499625578349755 -0.05928136064178532 -0.014793330736122075 -8.854968030897136e-05 0.0017221874404512692 -0.018232629368160072 -0.15934382790525276
-0.35734384153028775 -0.41790333288481624 -0.4747045319513142 -0.19485121197722183 0.19635075267786947 0.25431405750106756 0.474211594735804 0.7078389247119976
0.5795551645819934 0.6253774089566482 0.15711436500239187 -0.05961905342087331 -0.15262295654738772 -0.2334779343596427 -0.1289214086722796 -0.018396072150851494
0.0008840515530496891 -0.007158130003012515 -0.1193198763266563 -0.38287371147606447 -0.5047615708043748 -0.3385288461750398 -0.45030135693540585 -0.15372028996180973
-0.04241600324191706 0.011466076236076334 0.15539575016929538 0.4046837388502998 0.3777545388828945 0.30034471885141617 0.20174429598925314 0.12880298035346766
0.09600878215177039 -0.3633214647513112 -0.24311300482190573 -0.024461688952139807 0.0013520187783124 -0.010141501556362535 -0.2641950656699251 -0.5003735124769307
-0.2091665044947869 0.06384757781080828 -0.2350258276655294 -0.1789509458240196 0.03255698649762144 0.24538509621966836 0.48557754127970465 0.26095446881385626
0.5184175632825324 0.4585709130937007 0.7782144806447358 0.32513302076347217 0.48728769616743617 -0.24945103494887577 -0.37614843755197863 -0.05760747934818506
0.0011339382931324197 -0.009491777273733931 -0.355912815556049 -0.3187538031338085 -0.0521982261644887 -0.07694534558308584 -0.22329654665924872 0.03721694312058129
0.07452583335760433 -0.013763313507706477 0.26286568051110853 0.04494596001547906 0.06577730766829427 0.19553698780833048 0.5797650787365408 0.20763551445665032
0.6726359591028065 -0.10639205496016557 -0.3723440910171917 -0.09472982732412738 0.0015825942599325409 -0.04244057495705182 -0.3006236538617633 0.09516203354811256
0.17293528427331561 0.04281423214955521 0.16687852137991246 0.15754320758973514 -0.30129802545925444 -0.49105644807594734 -0.502189133739459 -1.2183522672315255
-1.293120964137377 -0.727459849321754 -0.16149564822632592 -0.1760107555466546 0.7917237832338823 -0.1576718453514188 -0.36038925222634716 -0.1170238586479229
-3.937785589309828e-05 -0.05756132120979076 -0.2376798361279579 0.20484340513148164 0.18082733747215074 0.24709588670366633 0.25973588494828515 -0.1548821318548466
-0.7382514366657337 -1.1722135336382327 -1.5205436060633162 -1.7295769379528365 -1.2802192021233858 -0.7451200399250768 -0.6225371477836652 -0.006794804238027896
0.3794005067841853 -0.23469259504777565 -0.3869387539735796 -0.07795368986867189 0.002945316149230131 -0.0884600029359351 -0.3565669343996395 0.09241242573515594
0.35961585628744686 0.4110166199194918 0.059930171874378914 -0.2987757382711715 -0.8297278642267742 -1.3612244338301447 -1.3483153898031186 -0.948033598143006
-0.758443647310817 -0.4208578296447375 -0.3921694171678489 -0.06578429435904169 -0.258096387793104 -0.33029489956140584 -0.2569824698892131 -0.0372976975763322
0.011622104239839228 -0.14393809249082953 -0.4131858706862104 -0.13120708596371722 0.30493703827284613 0.4968934664776186 0.25858002536683705 0.4568653569735367
0.001588736929308227 -0.37375972327908275 -0.3703456524406713 -0.3595593445505555 -0.2162731619456404 -0.25321170269144866 -0.3505267105581396 -0.5815575056140331
